google-chrome/optimization_guide_model_store/20/E6DC4029A1E4B4C1/1D75223F5B32CCE0/model.tflite (tflite, 64852 bytes, 5 tensors)

arith.constant f4 [1, 64]
000000 3c bc 89 be 58 82 52 be 4f 1e 0c be e1 70 15 be
       -0.26901424 -0.20557535 -0.13683437 -0.14593841
000010 01 22 c8 3e fa 4e 1e 3d 4a ca 84 be 54 74 26 3e
       0.39088443 0.038649537 -0.25935584 0.16255313
000020 7a ff 8e 3e bf 81 6b 3c 64 f9 7f bc ba e7 4f be
       0.27929288 0.014374196 -0.015623424 -0.2030324
000030 e2 99 dd bd 6f 80 3b be 89 34 1e 3e bd 6a 7e 3e
       -0.108203664 -0.18310712 0.15449728 0.24845405
000040 9b 52 90 be 4a e8 fa 3d 85 c7 7f be d6 9c 8c be
       -0.28188023 0.12251337 -0.24978454 -0.27463406
000050 cb 46 d3 3e f8 6a a7 be 3d 5f e8 bd 8c ea a5 3e
       0.41264948 -0.32698798 -0.1134629 0.32405508
000060 d1 5e 69 be ea 7c 89 be 00 03 85 be e9 2d 30 be
       -0.22790076 -0.26853114 -0.2597885 -0.17205013
000070 0d 9d d3 3e 00 53 09 bc c0 ed 38 bd 55 9b 42 3e
       0.41330758 -0.008381605 -0.04514861 0.19004567
000080 57 83 c2 3e 74 7b b4 bd 7c 8c 85 3d 21 36 ca 3c
       0.3799083 -0.08812609 0.06520936 0.024684014
000090 56 72 1d 3e 4f d8 00 be d5 cd 97 bd 84 e4 ad 3e
       0.15375647 -0.12582515 -0.07412306 0.33963406
0000a0 5d e9 6d 3e 9f 41 6d be dc 0d 41 3e e1 9b 19 be
       0.23233552 -0.23169564 0.18852943 -0.1500087
0000b0 3a 64 8c 3e 12 6a 35 be 82 4c 78 3d 10 a9 08 be
       0.27420217 -0.17716244 0.06061984 -0.13345742
0000c0 cf 16 8a be dc 06 32 bd 75 a9 12 3d 11 df ac 3e
       -0.26970527 -0.043463573 0.035806138 0.33763936
0000d0 37 94 43 be 04 c8 4e be de 64 95 3e ea d9 97 bc
       -0.19099508 -0.20193487 0.29178518 -0.018536527
0000e0 ce 77 72 bd 82 3a 4b 3e e4 bb ad 3e 66 06 eb 3c
       -0.059196286 0.19846538 0.33932412 0.028689574
0000f0 4c dd 88 bd 06 6f 00 be 6e e7 97 3e 62 4b 47 be
       -0.06682834 -0.12542352 0.29668754 -0.1946235

arith.constant1 f4 [64, 128]
000000 39 94 dc 3d 4f 2d c2 bd d3 49 db 3c 82 a9 1c 3e
       0.10770459 -0.09481298 0.0267686 0.15299037
000010 87 0a 56 3e 94 91 9e 3d f4 ac 22 be 49 f4 91 3c
       0.20902453 0.077426106 -0.15886289 0.01781668
000020 be 46 09 be a4 65 b6 bd 6c c2 f1 3d 57 69 8a 3d
       -0.13405892 -0.08906105 0.11804661 0.06758373
000030 07 78 06 be 35 48 f1 bd 92 52 2d 3e 46 ad 16 be
       -0.13131724 -0.117813505 0.1692603 -0.14714536
000040 52 d5 e0 3a 46 2a 5d 3e cb aa 01 be 8b 44 1b bd
       0.0017153418 0.21598157 -0.12662809 -0.037907165
000050 67 31 0c 3d 46 da b6 bd 3a d7 b3 bd 28 60 02 be
       0.0342268 -0.08928351 -0.087812856 -0.12731993
000060 d9 c2 f8 bc 0c c7 aa 3d a6 3a 9e bc 37 ec 7e bb
       -0.030366348 0.083387464 -0.019315075 -0.003889812
000070 ad 6d ae 3d 78 6c d6 3c 19 90 ec 3b d6 1d 73 3d
       0.08517013 0.026174769 0.007219326 0.059354626
000080 96 0f a6 3d 97 2e 76 bb bb ba bc bd 4c 3d 04 3d
       0.081084415 -0.003756439 -0.092153035 0.03228502
000090 a1 34 c4 3d 75 b6 a2 bd 15 0e 4d 3d 8b f4 6c 3c
       0.09580351 -0.07944957 0.050062258 0.0144626
0000a0 26 ae d2 3d 71 25 33 3d 5c f1 0a 3e 72 f1 99 3d
       0.102871224 0.04373688 0.13568634 0.07516755
0000b0 7e 87 a1 bd 3e 7d fb 3c 06 cc 51 bd c8 ed 9e 3c
       -0.07887171 0.030699369 -0.051219963 0.019400492
0000c0 e0 a3 d6 bc 8a e6 71 3c 21 55 fd bc 00 23 e5 bc
       -0.026201189 0.014764437 -0.030924382 -0.02797079
0000d0 d3 cf 35 be d6 4b 73 3d e0 03 3c 3e 02 48 09 3e
       -0.1775506 0.059398495 0.18360853 0.13406375
0000e0 d0 bd 1e be 1d 3d 84 3d 3a e2 56 be 30 2b bf bd
       -0.15502095 0.06456969 -0.20984736 -0.09334409
0000f0 89 35 60 3d cb 57 44 bd 2c b8 99 3d 60 1a e6 bd
       0.054738555 -0.04793529 0.07505831 -0.112354994
000100 b2 0a 46 be aa aa 9a 3d d4 89 9e bc 1d 8f 78 bd
       -0.19340017 0.07552083 -0.019352831 -0.06068336
000110 85 0e fc bd 7b eb 84 bc bf 79 36 be d5 e7 03 be
       -0.12307457 -0.016225567 -0.1781988 -0.12881406
000120 25 71 af 3d 28 55 cb bd 94 a4 f2 3d a5 22 03 be
       0.085665025 -0.09928352 0.11847797 -0.12806185
000130 1e ed 95 3d f3 db 83 3c 2b 46 a7 3d 9b 18 24 3e
       0.07320617 0.01609609 0.0816768 0.16025011
000140 b8 80 e6 3b 4e e1 7b bd e6 11 f9 bd ae 72 42 be
       0.0070343874 -0.061494164 -0.12161617 -0.1898906
000150 60 72 3a 3e 6c d9 ee 3d 3c 8d c0 ba f3 2d b4 bd
       0.18207693 0.11662564 -0.0014690529 -0.087978266
000160 63 0f 54 bd c5 a9 59 3d 0b 46 61 3d b7 f4 9d 3d
       -0.051772486 0.05314042 0.05499844 0.07712691
000170 52 30 0b be f2 4a 05 3e 7b 2a 49 be 3d 68 21 3e
       -0.13592651 0.1301687 -0.19645111 0.1576242
000180 51 c3 ce bc 4e 91 0c 3e 5a 78 55 bd 22 e4 10 be
       -0.025239618 0.13727304 -0.05211673 -0.14149526
000190 37 47 0c ba cb c4 0a 3c 3f 0e c2 bd d5 61 1f 3e
       -0.0005351188 0.008469771 -0.094753735 0.15564664
0001a0 69 82 33 bd 91 17 d4 3c 77 b6 27 3c d0 4c 82 bd
       -0.04382554 0.025890144 0.010236374 -0.06362307
0001b0 d0 56 9c bd 28 5b 8e 3b bb 62 a0 3d 5a 4b bb bd
       -0.07633746 0.0043443628 0.07831331 -0.091452315
0001c0 f9 cd 4d 3d 90 e6 cf bd 79 04 ce bd ad f6 95 bd
       0.05024526 -0.10151398 -0.10059447 -0.0732244
0001d0 7e 42 cc 3d a3 f2 25 3a 20 16 23 3d ca ac fb 3d
       0.0997362 0.0006330406 0.039816022 0.12288816
0001e0 25 23 ca bd d9 24 16 be 05 a8 b3 bc 86 f2 87 3d
       -0.098699845 -0.14662494 -0.021930704 0.066380545
0001f0 83 b2 44 be 21 ed 0d 3c 26 7f 01 3e 4d e5 0f be
       -0.19208722 0.008662493 0.1264616 -0.14052315
000200 1b 9a 83 3c 37 07 a4 3d 86 d8 0c be c9 ec e5 bd
       0.016064694 0.080091886 -0.13754472 -0.11226804
000210 a6 a9 2a 3e 7f e2 91 3d af 33 22 be 7b 61 db 3d
       0.16666278 0.07123279 -0.15840028 0.10711952
000220 cb 49 dc bc 7e 45 98 bd ca 45 8a bc 58 c0 92 3c
       -0.026890656 -0.074351296 -0.016878981 0.017913982
000230 57 04 26 be 2c 2a c5 bd 06 c9 30 bd 01 56 d1 bd
       -0.16212593 -0.09627184 -0.04316046 -0.10221482
000240 39 19 92 3d bd 25 a4 bc 77 68 6a 3a 43 a3 2c be
       0.07133717 -0.020037526 0.0008941958 -0.16859154
000250 19 77 f5 3d 66 36 0d 3d 07 ce 98 bc 98 14 0f bc
       0.11985607 0.034475707 -0.018652929 -0.008732937
000260 0f 57 b7 3c 96 3d e6 bd c3 ad 83 bc 95 e9 0d 3e
       0.02238038 -0.11242215 -0.016074067 0.13858636
000270 1a 2b 0e be ac 2b 3b be 4a a6 18 be 6f c7 6c be
       -0.1388363 -0.18278378 -0.14907184 -0.23122953
000280 e1 c8 36 bd 3f aa 0a be 94 09 ad bc 25 d1 99 3d
       -0.044625167 -0.13541506 -0.021122731 0.07510594
000290 30 81 af bd 5e 31 a1 3d 9e 17 b0 3d 2b 5c 5c 3d
       -0.085695624 0.07870744 0.085982546 0.053798836
0002a0 7b b0 5e 3d a4 d3 83 bd dd 2d 4b bd d2 79 0c 3e
       0.054367524 -0.064368516 -0.049604286 0.13718346
0002b0 8e 2b f5 bd 87 72 f2 bd 95 34 fd bd 05 ea 8e bd
       -0.11971198 -0.118382506 -0.12363545 -0.069782294
0002c0 9a c6 05 3e db 08 15 3c 09 bf 7e bd c6 f3 04 3d
       0.13064042 0.00909635 -0.062193904 0.032459043
0002d0 2b f4 06 3d 43 0f 8d bd b3 0c 97 bd 27 26 58 3d
       0.0329477 -0.068876766 -0.07375469 0.05277076
0002e0 87 5e f3 3d 18 51 e7 3d d8 bc 06 3e 10 b6 48 3e
       0.11883264 0.11294764 0.13157976 0.19600701
0002f0 ad 20 98 3d ae 25 67 bd 36 71 06 3e 59 48 be 3d
       0.074281074 -0.05643242 0.13129124 0.09291143
000300 33 31 d9 3d e4 88 b6 3c 83 20 3c bd 3b bd d8 bd
       0.10605087 0.022282071 -0.045929443 -0.10582968
000310 a0 e3 99 bc b7 c0 11 bd 20 71 f8 bc d9 39 99 3d
       -0.018785298 -0.035584178 -0.03032738 0.07481737
000320 ac cf 12 bd b1 75 c5 3d 3d cd a0 3d 89 56 91 3c
       -0.035842583 0.096415885 0.07851646 0.017741458
000330 1f 29 a4 3c ba 37 0f 3d 92 80 1b 3e e9 5c 0b 3e
       0.02003914 0.034965254 0.15185764 0.13609661
000340 f8 73 23 be 01 a6 26 3d 7a ac a2 bd 6e 1f 06 3e
       -0.15962207 0.040685657 -0.079430535 0.13097927
000350 9e f1 8f bd 78 c5 08 be a1 e2 97 bd 74 f1 1a 3e
       -0.07028507 -0.13356578 -0.07416273 0.1513117
000360 26 97 82 bc 55 73 0c be 0a cd 8b 3d 8c 86 e8 bd
       -0.015941214 -0.1371587 0.068262175 -0.11353788
000370 17 e5 c7 bd 4e 36 3e be 1a b9 dc bd 53 2e 81 bc
       -0.09760492 -0.18575403 -0.10777493 -0.01576916
000380 c8 d8 45 3e 76 5b 1c be 7e 3b 28 3e 1f d9 ec bc
       0.19320977 -0.15269265 0.16428944 -0.028912125
000390 ef 02 27 be f1 9d 32 bd 73 06 36 3c 7d 4f 0a 3e
       -0.16309713 -0.043607656 0.011109936 0.13506885
0003a0 5e e3 1e be 85 e9 73 bd ce 35 02 be 73 33 9a bc
       -0.15516421 -0.059548873 -0.12715837 -0.018823361
0003b0 3f b3 f0 bc 4d be 13 be a6 69 5d be b0 30 db 3d
       -0.029382346 -0.14428063 -0.21622333 0.10702646
0003c0 78 a0 53 bd 1e 4d 8f 3d 50 b7 e3 bc 95 8e c2 bd
       -0.051666707 0.06997131 -0.027797371 -0.094998516
0003d0 26 d8 4c 3e 54 9e 8f bc 6e 9c dd 3d e7 05 1d 3e
       0.20004329 -0.017531551 0.10820852 0.15334283
0003e0 14 8f 15 3d 89 cf bb 3d 3c 8d 72 3d 6e fa 38 be
       0.036513403 0.091704436 0.059216723 -0.18064281
0003f0 16 a9 ec 3d ae 05 41 3e 7c cf 56 bc c4 50 0c 3e
       0.11555688 0.18849823 -0.013110992 0.13702685

arith.constant2 f4 [128, 12]
000000 5b 48 ee bd d4 5a 3d be b0 11 4d be 6a 79 21 3e
       -0.116348945 -0.1849168 -0.20026278 0.15768972
000010 58 ba f2 3d 0c e0 ae bd 0a b8 01 3e 01 35 88 3d
       0.118519485 -0.08538827 0.12667862 0.06650735
000020 31 c5 41 bd 44 1b 91 3c bd b7 25 3e c5 e9 e9 bb
       -0.047307197 0.017713197 0.16183372 -0.007138463
000030 53 28 2d 3e 94 7e 2d 3d 30 be 3f 3e d1 e3 45 be
       0.16909914 0.042357042 0.18724895 -0.19325186
000040 93 14 b0 bd ad bb e5 3d 5e ac 3c 3e 79 a1 ea 3c
       -0.08597674 0.11217437 0.18425128 0.02864145
000050 5f 19 ca bc db 71 d2 3d 6f 15 0b 3d 73 25 89 be
       -0.024670301 0.102756225 0.033955988 -0.26786384
000060 bf 37 19 3d bf a5 b0 bd 93 51 6b be d9 ba ab bc
       0.03740668 -0.086253636 -0.22980337 -0.02096312
000070 a4 64 ba 3d 05 71 4a bd d6 78 eb 3d 0a e2 e7 bd
       0.09101227 -0.04942419 0.11497657 -0.113224104
000080 9e ca 1a be 70 95 d0 3d 77 26 3b 3e 1f fa 8a 3e
       -0.15116355 0.10184753 0.18276392 0.27143952
000090 c6 3e d1 3d 14 00 17 3e d5 69 9c bd d1 23 38 bd
       0.10217051 0.14746124 -0.07637373 -0.044956032
0000a0 bc 10 b2 3d c4 36 ca 3d 12 81 cd bd 53 b4 35 3e
       0.08694598 0.09873727 -0.10034384 0.1774457
0000b0 8e c9 42 3d 9c 56 8f bd e0 ff c8 bd 83 3c c4 bd
       0.0475555 -0.06998941 -0.09814429 -0.09581854
0000c0 d2 fb f9 bd af 78 05 3e 60 0e 08 be b2 7b 06 be
       -0.12206234 0.13034318 -0.13286734 -0.13133124
0000d0 0b 35 71 bd 85 5a 40 be 1b 9a 64 be 2d 9b e8 3d
       -0.058888476 -0.1878453 -0.22324412 0.113577224
0000e0 86 62 1f 3e b7 d5 55 3d 80 ce 96 bd fc 8c 4f 3e
       0.15564927 0.052205767 -0.073636055 0.20268625
0000f0 b1 9d a3 bd 60 0a 39 be 81 e9 f5 3d 57 4a be bd
       -0.079890616 -0.18070364 0.12007428 -0.09291523
000100 21 fb 5b bd 9c e3 fb 3d 9a 04 8d 3c d8 be 90 3d
       -0.053706292 0.122992724 0.017214108 0.070676506
000110 c1 a1 03 3e af fa a4 3d a6 d2 04 bd 1b 52 c9 bd
       0.12854673 0.080556266 -0.032427453 -0.098301135
000120 34 e5 2d be 4a 8a 94 bd cd 93 10 3e 1e 37 07 bd
       -0.16981965 -0.07252939 0.14118882 -0.03301155
000130 bb d4 11 3e 37 70 92 3d 4b 86 a7 bd 9b 24 ca bc
       0.14241306 0.071503095 -0.08179911 -0.024675658
000140 58 b8 90 3d 56 e8 ec bc 65 cd 26 3c 9a 6d 67 bd
       0.07066411 -0.02891938 0.010180806 -0.05650101
000150 23 00 9d bc 26 e0 ca 3d 6e 21 14 3e 3d 4a 20 3e
       -0.019165104 0.09906034 0.14465877 0.1565332
000160 73 e0 75 3d 1e 93 cd bd e1 05 17 bc 1c b6 86 3c
       0.060028505 -0.10037826 -0.00921771 0.016444258
000170 70 5a 24 3e ca 8d 49 be 2d 68 35 be 58 dd 0b be
       0.16050124 -0.19682994 -0.17715521 -0.13658655
000180 0d 51 4a 3e 8e db cc 3d 99 0d 17 3d d3 9a 45 be
       0.19757481 0.10002814 0.036878202 -0.19297342
000190 d6 64 33 be 88 f2 14 3b f9 4f 12 be e5 81 1b 3e
       -0.17518935 0.0022727568 -0.1428832 0.1518627
0001a0 da da 10 bd 93 c5 17 3d a0 68 1a be b4 2c 2f 3e
       -0.035364963 0.037053656 -0.15078974 0.17106897
0001b0 5b 6a 9e bb e5 fa 13 bd 2f 67 6e 3d ef de a5 3d
       -0.004834456 -0.036127944 0.058203872 0.08099162
0001c0 e6 ee 68 be ec 8d 0b be 08 07 6a ba 47 a4 22 3e
       -0.22747383 -0.13628358 -0.00089274393 0.1588298
0001d0 a4 ec 80 3a 10 9e 31 3d d8 69 0d bd a3 cf 02 be
       0.0009836149 0.04336363 -0.03452477 -0.1277452
0001e0 a0 bc 43 bd c3 e2 19 3e 5b 00 1a 3e ab 0b 93 bd
       -0.04778731 0.15027909 0.15039198 -0.0717996
0001f0 e3 c6 b4 3d 7d d4 5a 3e dd 58 0f 3d d7 5e 64 3d
       0.08826997 0.2137012 0.034996856 0.05575451
000200 c1 00 2a 3d f0 84 21 bb 34 65 4f be 04 3b 9e bd
       0.041504625 -0.0024645887 -0.2025345 -0.077261
000210 ef fe 9a bc 3c 28 bb bd c7 a6 8f bd bd a4 07 be
       -0.01892039 -0.091385335 -0.07014232 -0.13246436
000220 97 a3 1e bd 8f 05 0a be 4b a9 08 3e 7d 61 48 bd
       -0.03873023 -0.13478683 0.1334583 -0.048921097
000230 c2 e0 53 bd 59 51 14 bd f2 48 32 3e 64 a1 77 be
       -0.051728018 -0.03621039 0.17410639 -0.2418266
000240 df 6d 1f be 3e ff 2c 3e 9e a8 ff 3c 52 fd c4 3d
       -0.15569256 0.16894242 0.031208333 0.096186295
000250 63 ec 42 bd e4 ee fd 3d a4 a8 fb 3c cf 18 87 3c
       -0.047588717 0.123990804 0.030720063 0.016491322
000260 0f bb 09 be da 26 15 be 67 55 86 be 71 d4 47 be
       -0.13450263 -0.14565602 -0.26237032 -0.19514634
000270 ea c0 2c 3e 3e 01 99 3d 65 0a c8 3d 0c e9 04 3d
       0.16870466 0.0747094 0.097676076 0.032448813
000280 48 d2 07 3e aa d9 cf 3d 73 cc 8b 3c 1a cc 23 bc
       0.1326381 0.10148938 0.017065262 -0.009997392
000290 e5 1d 38 bd f0 10 a0 3d b2 b4 2e be 07 2c 93 bd
       -0.044950385 0.078157306 -0.17061117 -0.07186132
0002a0 eb 11 1c be 6a e2 40 3d a3 86 a5 3d 03 4f cb bd
       -0.1524121 0.047090925 0.080823205 -0.0992718
0002b0 b2 fe 66 be 71 f4 0b be 61 c8 6f bd 24 ef 15 3e
       -0.22558096 -0.13667466 -0.058540706 0.14642006
0002c0 3e bf a1 bd 0e a2 0c 3e c2 32 d9 3d a6 c6 22 3e
       -0.07897805 0.13733694 0.106053844 0.15896091
0002d0 f6 a9 18 be 24 47 69 bb 48 64 25 3e 78 c2 08 be
       -0.14908585 -0.0035595382 0.16151536 -0.13355434
0002e0 4a a7 46 be c0 c6 24 3e 12 bb e5 bd b0 73 9b 3c
       -0.19399753 0.16091442 -0.112173215 0.018976063
0002f0 cf 47 29 ba 8c b9 10 3e f0 02 e3 3d 73 d3 79 3e
       -0.00064575387 0.1413328 0.11084545 0.24397068
000300 21 cc 9c 3b 77 de e4 bc 93 50 6b be cb 1f 2e be
       0.0047850762 -0.02793811 -0.22979955 -0.17004316
000310 2c 7a 84 bc 0f ec 0c bb 22 8a 2f be 37 de 21 bd
       -0.016171537 -0.0021503007 -0.17142537 -0.03951856
000320 dd 71 02 be 7f 2b 8a 3d de 85 8b bd 29 2f 52 3d
       -0.12738748 0.067465775 -0.068126425 0.051314507
000330 0f 55 e6 bd ee f9 75 3e 68 b0 bc 3d 11 03 3f 3d
       -0.112466924 0.24021122 0.09213334 0.046633784
000340 a4 c1 5a 3e 0e 5f 45 be ad 1f 61 3c 41 bd 40 3d
       0.2136293 -0.19274542 0.013740462 0.047055487
000350 c2 99 51 3d 14 57 4b 3d fd e1 29 be bc 88 26 3e
       0.051172026 0.04964359 -0.16590114 0.16263098
000360 14 7f 7a 3e 5b 1a 89 3d b5 72 ea bc 4c bb 7c bd
       0.24462539 0.0669448 -0.02861915 -0.061702058
000370 d8 a6 7b 3d ba 2b 05 3e 47 f3 f1 3d 34 5e d5 bd
       0.06143841 0.13004962 0.118139796 -0.104183584
000380 d2 5b 29 bc 2e 7d 15 bd e4 2d 22 be 6a 75 17 3e
       -0.010336833 -0.036496334 -0.15837818 0.14790884
000390 06 f6 98 bc f1 cf d3 3c fd fa 54 bb f8 99 22 be
       -0.018672 0.02585599 -0.0032498233 -0.15879047
0003a0 77 f8 9b 3c 1d 0e 49 3d c3 17 2c be 2c ad 22 3e
       0.019039376 0.049085725 -0.1680594 0.15886372
0003b0 d1 bb 87 3d b7 0e 13 3e f2 63 df 3d a0 be 52 be
       0.0662762 0.14361082 0.10907735 -0.2058053
0003c0 f7 77 a1 3c d4 c0 88 bd f4 d1 e7 3d 91 43 16 be
       0.019710524 -0.06677404 0.11319342 -0.14674212
0003d0 13 c1 16 3d f6 25 03 3e 66 e7 d4 3d be 05 89 3d
       0.036805224 0.1280745 0.10395698 0.06690548
0003e0 33 f9 0a 3e 3d 16 28 3e 4c c5 5c be e9 b1 3b 3e
       0.13571624 0.16414733 -0.21559638 0.18329586
0003f0 17 94 e4 3d b0 69 56 3d 43 3a c4 bd d1 36 d4 3d
       0.111610584 0.052346885 -0.09581425 0.10362018

arith.constant29 f4 [64]
000000 c6 4c 16 bd fb 79 65 bd 5a 21 6c bb 2d a4 39 3c
       -0.03669431 -0.056024533 -0.0036030621 0.011330646
000010 94 18 e0 3c 64 28 e4 bb 5d 2c 8a bd 7f 5a 53 bc
       0.02735547 -0.0069628228 -0.06746743 -0.012899994
000020 b2 11 88 3d 9e 4c 63 bb dd be 97 3a 5c 8c 04 bc
       0.06644 -0.0034683119 0.0011577267 -0.008090105
000030 4b 01 75 3c d6 87 b4 bb 90 9c 07 3b b1 e8 15 3d
       0.014953922 -0.005509357 0.0020692684 0.036598865
000040 45 41 54 bd 9c ff d2 bc e1 ba 8e bb 8a 63 80 bc
       -0.05182006 -0.02575665 -0.004355774 -0.015672464
000050 c8 8c aa 3d 80 a7 3c bd de 52 e7 bb 09 b2 aa 3d
       0.08327633 -0.046058178 -0.007059439 0.08334739
000060 f2 2c da bc c1 b8 a1 bd 7e f5 e6 bc 14 f9 75 bc
       -0.02663276 -0.07896567 -0.028193232 -0.015012998
000070 e1 55 ee bc b8 23 0a bc 80 ab ea bb 47 93 af bc
       -0.029093685 -0.008431368 -0.0071615577 -0.021432532
000080 32 8e 15 be 5b a0 5f 3c 6e 2d 02 3d 60 e4 13 bd
       -0.14605024 0.013649072 0.031781606 -0.036106467
000090 4d 90 69 bc a4 7d 4c 3b af e6 01 bc ef 33 86 3c
       -0.014255595 0.0031202817 -0.007928534 0.016382186
0000a0 fc b8 f1 bd 65 88 20 3d d3 36 1d 3d 80 49 ac bb
       -0.11802861 0.039192576 0.038382363 -0.0052577853
0000b0 34 c3 a1 3d e5 e8 23 bd 8c 31 5f 3a c8 26 dd bb
       0.0789856 -0.040017027 0.0008514158 -0.006749008
0000c0 e7 5d c9 bc 66 34 54 bb 5b 46 5a bd 11 84 33 3c
       -0.024580909 -0.0032379865 -0.053289752 0.01095678
0000d0 c6 d2 48 3c e5 e3 2b bd b9 09 8d 3d c9 e9 cf 3b
       0.012257284 -0.041965384 0.0688662 0.006345008
0000e0 f6 70 3b 3c c4 7d 37 3d c4 c5 48 3d d7 89 3d 3c
       0.011440506 0.044797674 0.04901673 0.011568508
0000f0 2d 5b 6f bc 46 97 df b7 ad f9 e1 ba 2a 0f 5f bd
       -0.01460914 -2.6654114e-05 -0.0017240547 -0.05445782

arith.constant30 f4 [128]
000000 45 d7 03 3d ae 7b 4c 3d c4 78 85 bb fa 9c a2 bd
       0.03218772 0.049922638 -0.0040732343 -0.07940097
000010 c0 ce 73 bd 5a 9f e3 bd d7 45 af bd 18 68 2b bd
       -0.059523344 -0.11114378 -0.08558243 -0.04184732
000020 fb ad 95 bb b9 2e 4e bd 65 2a 5c bc a9 43 78 3d
       -0.004567859 -0.050337527 -0.013437842 0.0606114
000030 44 69 eb bb 12 92 0a 3d 81 de 33 3d 3a 64 f4 3c
       -0.0071841795 0.03383071 0.043913368 0.029832948
000040 e6 60 80 bc 23 a4 5c bc ec d0 20 3d 99 56 41 3d
       -0.015671205 -0.013466868 0.039261743 0.047201727
000050 1b bc fc 3b 64 45 86 3d 0b 90 2a bd af e6 59 bd
       0.0077128536 0.06556204 -0.041641276 -0.053198513
000060 19 24 21 3d 6d 20 e8 3c 04 d0 59 bd 48 87 08 bc
       0.039341066 0.028335774 -0.053176895 -0.008333035
000070 79 a8 4f 3d c0 d5 8d 3d 32 71 4a 3d c2 7f 20 be
       0.050697777 0.06925535 0.049424358 -0.15673736
000080 6b 19 88 3c ea fb 49 bd 41 9e c7 3c 12 30 14 bd
       0.016613683 -0.04931251 0.024367454 -0.036178656
000090 80 5f 9a bd 7c 19 8c 3b 0f fa 16 bd b4 45 71 3d
       -0.075377464 0.004275499 -0.03685957 0.058904365
0000a0 57 c8 06 3c de 06 0e 3d 13 ba ba bc f6 f2 ca bc
       0.008226476 0.034674518 -0.022793805 -0.024774056
0000b0 38 7a 00 bc 3c 04 af bd f1 28 52 3c 22 fa c7 bc
       -0.007841639 -0.085457295 0.012827144 -0.024411265
0000c0 2c 64 68 3c 2f 12 75 3d 2e 36 14 3e 73 95 82 bd
       0.014184039 0.059831794 0.14473793 -0.063761614
0000d0 be 8a 19 3b 10 20 d6 bd 05 ec af bc a9 20 2b 3c
       0.0023428644 -0.10455334 -0.021474848 0.0104447985
0000e0 ca e3 f9 bc 94 b4 3b bc 2f 59 d8 bd d1 75 4d bd
       -0.030504126 -0.011456627 -0.105638854 -0.050161187
0000f0 68 15 44 3c 37 8d 82 bc d9 10 92 3c fe a3 01 3c
       0.011967994 -0.015936477 0.0178303 0.007912634
000100 4e fc d1 3c d1 91 3f 3d 60 1f 2b bd e0 d0 54 bc
       0.025633004 0.04676992 -0.04177797 -0.012989253
000110 d1 8a ce bd d1 2a 16 bd 90 df 02 bd 84 7c 23 bd
       -0.10085071 -0.036661927 -0.031951487 -0.03991367
000120 12 5c f7 bc f6 10 a0 bd 40 1d 51 bb 2a 0e 87 3c
       -0.03019527 -0.07815735 -0.0031908303 0.016486246
000130 13 31 01 be 0d e1 44 3d 47 8e c9 bc e9 18 a8 bc
       -0.12616377 0.048066188 -0.024603976 -0.02051969
000140 de 64 9c bd bc 0b 12 3d dd 96 92 bc ed f3 a0 bd
       -0.076364264 0.035655722 -0.017894203 -0.07859025
000150 73 b9 66 bd eb b7 6f 3d d2 00 09 3e 9f e6 52 bd
       -0.056329202 0.058525007 0.13379219 -0.05148947
000160 33 c3 91 bd 06 1d 5d 3d 57 5b d1 bd f5 4f 1a 3c
       -0.071173094 0.053982757 -0.102225 0.009418477
000170 b5 58 28 bc 57 72 99 bc bf 4e b7 3b 1f b1 23 bc
       -0.010275056 -0.01873128 0.005594104 -0.009990959
000180 da b1 02 bd 21 4e 89 bc 2a 6a 39 bd 06 77 23 be
       -0.031907894 -0.016760888 -0.04526726 -0.15963373
000190 dd 3a f2 bc 72 b6 c4 3d c1 de 9e bd aa 8a a9 bd
       -0.029569084 0.09605111 -0.07757331 -0.08278401
0001a0 e3 42 c1 bd 5b 6c 08 bd 01 c4 31 bd 4c a5 e6 38
       -0.09436586 -0.03330646 -0.043399815 0.000109980436
0001b0 2c c5 e5 bd 7a 95 77 3c ef 3a df 3c 3e e5 00 bd
       -0.11219248 0.015111322 0.027249781 -0.031468622
0001c0 cc 5a 8b bc 29 e4 37 bd db e2 e5 bc df cf 04 bd
       -0.017011069 -0.044895325 -0.028062275 -0.032424804
0001d0 74 c2 b4 bd e3 de fa 3c 72 8e 84 3d 7e 9c 4c bd
       -0.088261515 0.030623859 0.06472482 -0.04995393
0001e0 80 e9 e7 bc f6 94 27 3d 1c b9 45 bd 4c 72 2b bc
       -0.028309584 0.040913545 -0.048272237 -0.010464262
0001f0 4f 48 0c be d2 b3 9d bc e1 87 10 bd dd db 77 bc
       -0.13699459 -0.019250784 -0.035285834 -0.015128103
